…
      "outputs": [
        {
          "output_type": "stream",
          "name": "stdout",
          "text": [
            "Model: \"Predict\"\n",
            "_________________________________________________________________\n",
            "Layer (type)                 Output Shape              Param #   \n",
            "=================================================================\n",
            "input_3 (InputLayer)         [(None, 28, 28, 3)]       0         \n",
            "_________________________________________________________________\n",
            "layer_conv1 (Conv2D)         (None, 28, 28, 64)        1792      \n",
            "_________________________________________________________________\n",
            "batch_normalization_28 (Batc (None, 28, 28, 64)        256       \n",
            "_________________________________________________________________\n",
            "activation_6 (Activation)    (None, 28, 28, 64)        0         \n",
            "_________________________________________________________________\n",
            "maxPool1 (MaxPooling2D)      (None, 14, 14, 64)        0         \n",
            "_________________________________________________________________\n",
            "layer_conv2 (Conv2D)         (None, 14, 14, 64)        36928     \n",
            "_________________________________________________________________\n",
            "batch_normalization_29 (Batc (None, 14, 14, 64)        256       \n",
            "_________________________________________________________________\n",
            "activation_7 (Activation)    (None, 14, 14, 64)        0         \n",
            "_________________________________________________________________\n",
            "maxPool2 (MaxPooling2D)      (None, 7, 7, 64)          0         \n",
            "_________________________________________________________________\n",
            "conv3 (Conv2D)               (None, 7, 7, 32)          18464     \n",
            "_________________________________________________________________\n",
            "batch_normalization_30 (Batc (None, 7, 7, 32)          128       \n",
            "_________________________________________________________________\n",
            "activation_8 (Activation)    (None, 7, 7, 32)          0         \n",
            "_________________________________________________________________\n",
            "maxPool3 (MaxPooling2D)      (None, 3, 3, 32)          0         \n",
            "_________________________________________________________________\n",
            "flatten_5 (Flatten)          (None, 288)               0         \n",
            "_________________________________________________________________\n",
            "fc0 (Dense)                  (None, 64)                18496     \n",
            "_________________________________________________________________\n",
            "dropout_4 (Dropout)          (None, 64)                0         \n",
            "_________________________________________________________________\n",
            "fc1 (Dense)                  (None, 32)                2080      \n",
            "_________________________________________________________________\n",
            "dropout_5 (Dropout)          (None, 32)                0         \n",
            "_________________________________________________________________\n",
            "fc2 (Dense)                  (None, 4)                 132       \n",
            "=================================================================\n",
            "Total params: 78,532\n",
            "Trainable params: 78,212\n",
            "Non-trainable params: 320\n",
            "_________________________________________________________________\n"
          ]
        }
      ]
    },
    {
      "cell_type": "code",
      "metadata": {
        "colab": {
…
        "id": "U8cD1U0Htt_w",
        "outputId": "dfbcd76d-59e8-4882-c121-81b5303941a4"
      },
      "source": [
        "model1.summary()"
      ],
      "execution_count": 129,
      "outputs": [
        {
          "output_type": "stream",
          "name": "stdout",
          "text": [
            "Model: \"sequential_2\"\n",
            "_________________________________________________________________\n",
            "Layer (type)                 Output Shape              Param #   \n",
            "=================================================================\n",
            "conv2d_27 (Conv2D)           (None, 27, 27, 32)        416       \n",
            "_________________________________________________________________\n",
            "conv2d_28 (Conv2D)           (None, 25, 25, 64)        18496     \n",
            "_________________________________________________________________\n",
            "max_pooling2d_16 (MaxPooling (None, 12, 12, 64)        0         \n",
            "_________________________________________________________________\n",
            "dropout_10 (Dropout)         (None, 12, 12, 64)        0         \n",
            "_________________________________________________________________\n",
            "flatten_8 (Flatten)          (None, 9216)              0         \n",
            "_________________________________________________________________\n",
            "dense_7 (Dense)              (None, 128)               1179776   \n",
            "_________________________________________________________________\n",
            "dropout_11 (Dropout)         (None, 128)               0         \n",
            "_________________________________________________________________\n",
            "dense_8 (Dense)              (None, 4)                 516       \n",
            "=================================================================\n",
            "Total params: 1,199,204\n",
            "Trainable params: 1,199,204\n",
            "Non-trainable params: 0\n",
            "_________________________________________________________________\n"
          ]
        }
      ]
    },
    {
      "cell_type": "code",
      "metadata": {
        "id": "YWaZdtIrvBh1"
…
